data/magic_model.tflite (tflite, 29424 bytes, 11 tensors)

batch_normalization_v1/batchnorm/mul f4 [16]
2.313473 3.2323663 9.038219 2.9541328 3.0135713 1.6695803 7.222879 5.670372
16.094662 31.690317 1.6012787 4.8657947 3.3469317 30.638374 2.1934485 1.7017636
00000000: f10f 1440 17df 4e40 8c9c 1041 8310 3d40
00000010: 5ade 4040 cfb4 d53f d321 e740 b073 b540
00000020: dec1 8041 c585 fd41 b3f6 cc3f 97b4 9b40
00000030: 2134 5640 641b f541 7661 0c40 64d3 d93f

batch_normalization_v1/batchnorm/sub f4 [16]
-0.8018826 -0.31467283 -0.20649639 -0.3370335 -1.2307974 -0.83320844 -0.20521191 -0.17820758
-0.11099337 0.018593544 -1.9154009 -0.091355965 -0.29831967 0.03952853 -0.34856036 -1.8887115
00000000: 2e48 4dbf cc1c a1be ca73 53be a88f acbe
00000010: c58a 9dbf 264d 55bf 1223 52be 0c7c 36be
00000020: 7e50 e3bd 7d51 983c db2b f5bf d618 bbbd
00000030: 5bbd 98be abe8 213d 8176 b2be 4cc1 f1bf

batch_normalization_v1_1/batchnorm/mul f4 [8]
0.65377915 0.75979054 0.62082565 0.67570657 0.3519614 0.4698341 0.6440372 0.5539324
00000000: 125e 273f a281 423f 6eee 1e3f 1bfb 2c3f
00000010: 4934 b43e 188e f03e 9fdf 243f 84ce 0d3f

batch_normalization_v1_1/batchnorm/sub f4 [8]
-1.0341063 0.2752351 0.1485456 0.10222304 -0.6315186 -0.9035209 -0.8645376 -1.1576427
00000000: 985d 84bf 9deb 8c3e 561c 183e 505a d13d
00000010: 34ab 21bf 254d 67bf 5652 5dbf a32d 94bf

conv1d/conv1d/Conv2D_bias f4 [24]
0.033233862 -0.040031567 -0.0060961125 0.05140527 -0.03541463 -0.0071631176 0.029187778 0.015110661
-0.05667496 -0.0012479967 -0.04449003 0.02751681 -0.05152971 0.026941426 0.016374402 -0.019111762
0.02348063 0.06614647 -0.012599591 0.04286361 0.020844879 -0.045351896 0.019782672 0.01811734
00000000: 3b20 083d 24f8 23bd e6c1 c7bb 558e 523d
00000010: ee0e 11bd 96b8 eabb 351b ef3c b592 773c
00000020: 0124 68bd d293 a3ba 2d3b 36bd ef6a e13c
00000030: d110 53bd 44b4 dc3c 9c23 863c 4590 9cbc
00000040: 735a c03c cd77 873d 846e 4ebc c191 2f3d
00000050: e1c2 aa3c e9c2 39bd 450f a23c d16a 943c

conv1d/conv1d/ExpandDims_1 f4 [24, 1, 1, 6]
0.25248072 -0.19508977 0.29229712 0.13540854 -0.103436016 -0.038642425 -0.15188885 0.012997273
-0.04429129 0.3105182 0.33830035 -0.41702768 0.06950346 0.048676692 0.3490712 -0.100362994
-0.1895918 0.304548 -0.3779581 -0.10156996 -0.056604333 0.37617806 -0.09616065 -0.2646536
0.2567885 -0.015240628 -0.4805925 -0.08261058 -0.24411586 -0.17965606 -0.31279635 -0.13246542
-0.045196928 0.0103491 0.33437037 0.22997199 -0.3763705 -0.087222405 0.20827983 0.25321826
-0.1477109 -0.2928125 -0.30262056 0.02240622 0.09218454 -0.18107937 0.17180407 -0.4037477
0.28772554 0.40484422 -0.3623581 -0.1844299 0.33599073 -0.104243934 -0.17628954 0.19624667
-0.007028409 -0.19951165 -0.37367374 0.15873998 0.047409754 0.0009052183 0.1875387 -0.066156276
-0.08080129 -0.34736866 0.14323391 0.43162987 -0.077311434 -0.23428154 0.10900505 -0.010674746
-0.26923832 -0.021266064 0.044129174 -0.027016869 -0.2742959 -0.059613906 0.34775507 0.0129588265
0.3172604 0.08415589 -0.21357143 0.12744504 0.36572474 0.07910838 0.3589528 -0.21632133
0.23082922 -0.4122421 0.36810955 -0.08614091 0.00096309115 0.27724415 0.15711649 -0.20777833
0.10912255 -0.42845207 0.35674176 -0.4477626 -0.3712869 0.16615799 0.3717914 -0.3988695
0.07791689 0.12264751 0.18947294 -0.3924569 -0.17322972 0.28601936 0.3369664 -0.030356146
-0.37664282 0.20916578 0.04361245 -0.13355863 -0.30673856 0.29515874 0.46059817 -0.22606914
-0.28752428 0.34206256 -0.3055802 -0.12772985 0.11944972 -0.3010486 -0.0011136556 0.17468633
-0.07419638 -0.38348702 -0.049200628 -0.12110031 0.19531573 0.25031236 0.22328922 0.4283641
-0.17681016 -0.41314864 0.046251636 0.031771958 0.16246742 -0.3279498 0.35506925 0.20886143
00000000: 2745 813e 9dc5 47be f8a7 953e 89a8 0a3e
00000010: 43d6 d3bd 8547 1ebd c088 1bbe 84f2 543c
00000020: c96a 35bd 3efc 9e3e b435 ad3e a784 d5be
00000030: d457 8e3d 3661 473d 76b9 b23e 1d8b cdbd
00000040: 5a24 42be b7ed 9b3e b983 c1be e903 d0bd
00000050: f2d9 67bd 699a c03e e0ef c4bd ad80 87be
00000060: c879 833e d4b3 79bc 3810 f6be bc2f a9bd
00000070: 82f9 79be c2f7 37be d826 a0be 04a5 07be
00000080: 6a20 39bd 468f 293c 9832 ab3e c77d 6b3e
00000090: a2b3 c0be a9a1 b2bd 4f47 553e d3a5 813e
000000a0: 8741 17be 85eb 95be 15f1 9abe 408d b73c
000000b0: 40cb bc3d df6c 39be 68ed 2f3e 05b8 cebe
000000c0: c350 933e be47 cf3e 0087 b9be 31db 3cbe
000000d0: fa06 ac3e d87d d5bd 3f85 34be e3f4 483e
000000e0: 914e e6bb c84c 4cbe 2a52 bfbe bc8c 223e
000000f0: bb30 423d 2c4c 6d3a 250a 403e f17c 87bd
00000100: 267b a5bd 4eda b1be e9ab 123e 97fe dc3e
00000110: 7555 9ebd 80e7 6fbe 0a3e df3d 21e5 2ebc
00000120: 9bd9 89be 2b36 aebc cbc0 343d 7b52 ddbc
00000130: 8370 8cbe b62d 74bd f40c b23e 4251 543c
00000140: f56f a23e ec59 ac3d 78b2 5abe f480 023e
00000150: 4640 bb3e 9303 a23d a9c8 b73e 5783 5dbe
00000160: 7f5e 6c3e 6611 d3be db78 bc3e a56a b0bd
00000170: f477 7c3a f2f2 8d3e 25e3 203e d8c3 54be
00000180: a57b df3d 125e dbbe dba6 b63e 2441 e5be
00000190: 5119 bebe 5225 2a3e 715b be3e a038 ccbe
000001a0: e492 9f3d 9e2e fb3d 3205 423e 1cf0 c8be
000001b0: 2263 31be 2171 923e dc86 ac3e 74ad f8bc
000001c0: 54d7 c0be 8e2f 563e f8a2 323d 98c3 08be
000001d0: d60c 9dbe 0c1f 973e 86d3 eb3e ab7e 67be
000001e0: 6236 93be d322 af3e 0275 9cbe 9dcb 02be
000001f0: 0ea2 f43d 0b23 9abe 15f8 91ba f9e0 323e
00000200: 46f4 97bd 6958 c4be 9986 49bd 7003 f8bd
00000210: d900 483e f128 803e eea5 643e 8a52 db3e
00000220: b90d 35be 3888 d3be 5b72 3d3d 5023 023d
00000230: dc5d 263e 09e9 a7be a3cb b53e c5df 553e

dense/Relu_bias f4 [16]
0.0 0.0 0.0 0.0 0.0 0.0 0.0 0.0
0.0 0.0 0.0 0.0 0.0 0.0 0.0 0.0
00000000: 0000 0000 0000 0000 0000 0000 0000 0000
00000010: 0000 0000 0000 0000 0000 0000 0000 0000
00000020: 0000 0000 0000 0000 0000 0000 0000 0000
00000030: 0000 0000 0000 0000 0000 0000 0000 0000

dense/kernel/transpose f4 [16, 384]
0.09453869 0.024487557 0.0700294 -0.0139624 -0.0350923 0.06968987 0.10254242 0.030435907
-0.07005374 -0.042354975 0.1303933 -0.011418618 0.104070455 -0.12392785 -0.07168371 -0.0061823023
-0.056465726 0.074366674 0.16571039 -0.10314097 0.042039715 0.09916867 -0.02828282 0.11245153
-0.10322017 0.03109214 0.017238976 0.014040445 -0.12510873 0.074730456 -0.048415184 0.0796652
0.06315305 0.042646218 0.06226339 0.08153557 -0.08008994 -0.05930999 0.10829382 0.05962213
-0.031103877 -0.11741029 0.026857007 0.037303817 -0.07484391 -0.01383935 0.014837165 0.019555585
0.014794933 0.07108571 0.10780857 -0.071980104 -0.14460875 -0.09887265 0.003514119 -0.08894408
-0.12687191 0.07325653 -0.07904274 -0.04164213 -0.06288201 0.064296335 0.11433385 0.0627403
0.019398179 0.017045476 0.09976563 0.074010864 0.047122564 -0.09979819 -0.010807448 0.038154885
0.059735376 -0.12371111 0.006546547 -0.025438348 0.055699963 0.021137051 -0.010855577 -0.16876473
0.022409404 -0.17531547 0.0058879787 -0.09346865 0.0029673565 0.027850725 0.09819837 0.1999056
0.1111962 0.035031468 0.02517436 -0.070847176 -0.10817252 -0.13438068 0.17449342 -0.034415558
0.077455044 0.09098203 0.0029201154 0.05271021 0.116835065 0.03401991 -0.11215971 -0.11318939
-0.093460865 0.041162856 0.050958924 0.08770364 -0.07768413 0.08271618 -0.039686836 0.15603231
-0.09285467 0.15188754 0.04019077 0.120095715 -0.018260678 -0.1716934 0.034491684 -0.0694816
-0.0414914 -0.011280173 -0.029085303 0.13845864 0.069646135 -0.0044674277 0.094860554 0.05280805
-0.11689504 -0.01581714 -0.06794662 0.01780852 0.101527534 -0.09022777 -0.037973415 -0.019027483
-0.10953872 0.073500805 0.11512503 0.12183753 -0.04930777 -0.079206735 0.10482408 0.0048031705
0.07773478 0.14264795 -0.043438867 0.022758385 0.056097202 0.069115065 -0.065158226 0.12852989
0.031268347 0.06992967 -0.04069318 -0.11076348 0.030994324 0.0011796132 0.038374897 0.039492253
-0.005755833 0.0794002 0.07318466 0.11534905 -0.047359433 0.0036500832 0.05052506 -0.101060696
-0.13467038 0.02669268 0.05747894 0.038426615 0.0615438 0.04140637 0.110581025 0.0816124
0.042208444 -0.061755132 0.05851184 -0.07863728 -0.08035562 -0.12282381 -0.103149645 0.0350249
0.053537264 -0.05255911 0.10074996 -0.102772355 0.074275024 0.010696626 0.017051 -0.06949738
0.0094934525 -0.06822038 0.049035065 0.027478343 0.061165825 -0.035968654 0.008441408 -0.08447488
0.069470786 0.15435003 0.15090886 -0.10533526 0.08935892 0.06437095 -0.0430902 -0.1450973
-0.082054086 -0.03364137 -0.033048976 -0.1649017 0.07594393 0.02670758 -0.066365115 -0.093027174
0.035515882 -0.034469206 0.16185017 0.124226 -0.14734824 -0.0796227 -0.048358575 -0.03674358
-0.096025154 0.13361856 -0.099968575 0.015068668 0.13395393 -0.050982203 -0.06277104 0.063289
-0.021615367 0.075871356 0.02862037 -0.07986755 -0.06773584 0.07026956 0.17369854 -0.01544709
-0.02325221 -0.0045684427 0.041942388 -0.054725688 -0.04112443 -0.06417283 0.06451543 -0.00671701
-0.016092077 -0.086903185 -0.011935145 -0.0646111 -0.05827815 -0.09507776 -0.08193324 -0.06031492
00000000: 809d c13d 219a c83c 936b 8f3d 8dc2 64bc
00000010: f2bc 0fbd 90b9 8e3d c301 d23d b954 f93c
00000020: 5678 8fbd 697c 2dbd d285 053e 2815 3bbc
00000030: e422 d53d e2cd fdbd e9ce 92bd e994 cabb
00000040: 9b48 67bd 8e4d 983d fcaf 293e 933b d3bd
00000050: d631 2c3d f218 cb3d 5fb1 e7bc fd4c e63d
00000060: 1965 d3bd f2b4 fe3c c138 8d3c e509 663c
00000070: 811c 00be 480c 993d 004f 46bd 8227 a33d
00000080: 6356 813d cdad 2e3d e507 7f3d 1ffc a63d
00000090: 3206 a4bd 08ef 72bd 26c9 dd3d 5636 743d
000000a0: 8fcd febc ce74 f0bd 3a03 dc3c e3cb 183d
000000b0: c447 99bd 71be 62bc 9517 733c 0933 a03c
000000c0: 7266 723c 6295 913d bdca dc3d 4e6a 93bd
000000d0: 5114 14be be7d cabd 224d 663b 5028 b6bd
000000e0: b6ea 01be 8507 963d 29e1 a1bd f090 2abd
000000f0: 49c8 80bd ccad 833d de27 ea3d fd7d 803d
00000100: eee8 9e3c f4a2 8b3c ec51 cc3d 0293 973d
00000110: 9703 413d fe62 ccbd b911 31bc 4c48 1c3d
00000120: 15ad 743d 405c fdbd 6b84 d63b 1564 d0bc
00000130: a525 643d 9c27 ad3c 97db 31bc a9d0 2cbe
00000140: ed93 b73c e685 33be f2ef c03b 7e6c bfbd
00000150: fb77 423b 3427 e43c 3a1c c93d 0eb4 4c3e
00000160: d5ba e33d 287d 0f3d 763a ce3c 5318 91bd
00000170: 8e89 ddbd 179b 09be 67ae 323e 54f7 0cbd
00000180: c0a0 9e3d c954 ba3d 685f 3f3b a9e6 573d
00000190: 3947 ef3d 7658 0b3d fdb3 e5bd d7cf e7bd
000001a0: 6968 bfbd 629a 283d 4eba 503d f79d b33d
000001b0: db18 9fbd 1a67 a93d aa8e 22bd efc6 1f3e
000001c0: 972a bebd 6888 1b3e 149f 243d bef4 f53d
000001d0: 6b97 95bc 65d0 2fbe 2747 0d3d 5e4c 8ebd
000001e0: e3f2 29bd 7ad0 38bc 4d44 eebc 1ac8 0d3e
000001f0: a2a2 8e3d 8063 92bb 4046 c23d 414d 583d
00000200: ab66 efbd f292 81bc 9927 8bbd 2ce3 913c
00000210: abed cf3d 56c9 b8bd 038a 1bbd 86df 9bbc
00000220: d655 e0bd 9787 963d acc6 eb3d f485 f93d
00000230: f2f6 49bd 2437 a2bd 02ae d63d ea63 9d3b
00000240: 6a33 9f3d 4e12 123e f4ec 31bd cb6f ba3c
00000250: 2ec6 653d 338c 8d3d ad71 85bd 579d 033e
00000260: 3d13 003d 4937 8f3d e4ad 26bd f7d7 e2bd
00000270: cfe7 fd3c 409d 9a3a ff2e 1d3d a1c2 213d
00000280: 6d9b bcbb 929c a23d d7e1 953d 1f3c ec3d
00000290: f7fb 41bd 3c36 6f3b 5ef3 4e3d e9f8 cebd
000002a0: 08e7 09be 9baa da3c 096f 6b3d 3a65 1d3d
000002b0: 5a15 7c3d ba99 293d 4e78 e23d 6724 a73d
000002c0: c3e2 2c3d f3f2 7cbd 1caa 6f3d 950c a1bd
000002d0: 7d91 a4bd 0d8b fbbd 1f40 d3bd 4576 0f3d
000002e0: e449 5b3d 3948 57bd ff55 ce3d 507a d2bd
000002f0: 811d 983d e740 2f3c 8aae 8b3c a454 8ebd
00000300: 6d8a 1b3c 20b7 8bbd fed8 483d 431a e13c
00000310: 0489 7a3d de53 13bd d54d 0a3c 2a01 adbd
00000320: b346 8e3d ef0d 1e3e da87 1a3e 03ba d7bd
00000330: cf01 b73d ebd4 833d 597f 30bd 6394 14be
00000340: f90b a8bd 88cb 09bd 5d5e 07bd fedb 28be
00000350: 7e88 9b3d dbc9 da3c 6fea 87bd 0885 bebd
00000360: 1a79 113d 952f 0dbd 0dbc 253e 336a fe3d
00000370: 75e2 16be 3a11 a3bd a413 46bd 7080 16bd
00000380: d6a8 c4bd 4ed3 083e 53bc ccbd 93e2 763c
00000390: 382b 093e b7d2 50bd 1a8e 80bd aa9d 813d
000003a0: b612 b1bc 7162 9b3d 4475 ea3c 9991 a3bd
000003b0: 17b9 8abd 7de9 8f3d 08de 313e cb15 7dbc
000003c0: 6b7b bebc e0b2 95bb c8cb 2b3d 0b28 60bd
000003d0: 1772 28bd 0b6d 83bd aa20 843d 5d1a dcbb
000003e0: 88d3 83bc 4cfa b1bd a08b 43bc d352 84bd
000003f0: 12b5 6ebd 21b8 c2bd 9dcc a7bd c70c 77bd

dense_1/MatMul_bias f4 [8]
0.0 0.0 0.0 0.0 0.0 0.0 0.0 0.0
00000000: 0000 0000 0000 0000 0000 0000 0000 0000
00000010: 0000 0000 0000 0000 0000 0000 0000 0000

dense_1/kernel/transpose f4 [8, 16]
-0.34397775 -0.4398425 -0.1838162 0.099985205 0.22305237 -0.054091357 0.019681338 0.22949077
0.30298287 0.33954236 -0.34184876 0.4884415 -0.27807295 -0.16634472 -0.42190707 0.25739157
0.31309804 -0.32548434 0.32350707 0.26056495 -0.3807805 0.15018395 0.22336414 -0.39264724
0.3715866 0.13527457 -0.049794186 0.2769508 -0.18685156 0.2956264 0.19731171 -0.081376836
-0.31087118 -0.24789652 -0.1239877 0.19177559 -0.5597667 -0.0016631301 0.43882397 -0.33378664
0.47602364 0.26475257 -0.045857042 0.14097081 -0.35715276 0.16202185 -0.27987018 0.10605005
0.37363264 -0.377104 -0.42508054 -0.39330468 -0.18982616 -0.031525787 -0.19009326 -0.18436612
0.37734896 0.37495947 -0.1252771 0.34656313 -0.15389831 0.004721164 -0.39633748 0.2702169
-0.31697372 0.2439102 -0.16260734 -0.32158455 -0.033559185 0.45237902 -0.2723995 0.48028365
0.10054392 0.35620555 0.42032683 -0.28178295 0.41086555 0.034692556 0.25518388 -0.39909086
0.028941577 0.449412 -0.14189088 -0.19646245 -0.203557 -0.04277813 0.045668323 0.71202815
0.058844537 -0.2589395 -0.5017764 -0.11777989 -0.23395133 0.4051905 0.5160516 0.23674487
-0.273412 0.16885185 -0.41449645 -0.33477685 -0.3042988 -0.12650445 -0.048649546 -0.27942458
-0.25951084 0.33220828 -0.38879395 -0.21047977 -0.2504739 0.021233995 0.3606745 -0.61766374
-0.21359603 -0.45990413 0.012322634 0.29973125 0.644464 -0.49925694 0.21793124 -0.12321422
0.31982315 -0.17615435 0.40502924 0.30185854 0.34366384 0.44503352 -0.16727298 0.14487708
00000000: da1d b0be 0933 e1be 503a 3cbe 0bc5 cc3d
00000010: d767 643e e68e 5dbd c23a a13c a1ff 6a3e
00000020: 9220 9b3e 7fd8 ad3e cd06 afbe 0115 fa3e
00000030: 945f 8ebe 4556 2abe 3404 d8be d4c8 833e
00000040: 634e a03e e2a5 a6be b8a2 a53e c568 853e
00000050: a9f5 c2be d2c9 193e 92b9 643e 0f09 c9be
00000060: 9940 be3e 6b85 0a3e fdf4 4bbd 7fcc 8d3e
00000070: 0456 3fbe 585c 973e 150c 4a3e e6a8 a6bd
00000080: 822a 9fbe 96d8 7dbe 43ed fdbd d260 443e
00000090: df4c 0fbf 63fd d9ba 89ad e03e 15e6 aabe
000000a0: 5fb9 f33e a68d 873e 98d4 3bbd a75a 103e
000000b0: badc b6be 0ee9 253e 254b 8fbe c530 d93d
000000c0: c74c bf3e c713 c1be 28a4 d9be 3b5f c9be
000000d0: ca61 42be 2f21 01bd cfa7 42be 79ca 3cbe
000000e0: e233 c13e b0fa bf3e a448 00be b970 b13e
000000f0: 8597 1dbe feb3 9a3b bfec cabe df59 8a3e
00000100: 614a a2be 98c3 793e 8a82 26be bba6 a4be
00000110: 5b75 09bd 399e e73e f277 8bbe bde7 f53e
00000120: f9e9 cd3d 9360 b63e 1435 d73e db45 90be
00000130: f85c d23e c819 0e3d 76a7 823e a355 ccbe
00000140: e316 ed3c 5419 e63e d84b 11be 742d 49be
00000150: 3f71 50be 1f38 2fbd b50e 3b3d 7a47 363f
00000160: f806 713d b893 84be 6b74 00bf 9536 f1bd
00000170: f090 6fbe 2175 cf3e f51b 043f 3f6d 723e
00000180: a8fc 8bbe 80e7 2c3e e138 d4be df67 abbe
00000190: 0dcd 9bbe 628a 01be bf44 47bd bd10 8fbe
000001a0: 9bde 84be 3417 aa3e 0010 c7be 0288 57be
000001b0: 1d3e 80be eaf2 ad3c 54aa b83e 361f 1ebf
000001c0: ebb8 5abe 8e78 ebbe e0e4 493c 6076 993e
000001d0: 98fb 243f 9b9e ffbe 5e29 5f3e bd57 fcbd
000001e0: dcbf a33e ce61 34be fe5f cf3e 348d 9a3e
000001f0: b5f4 af3e 6fdb e33e 9c49 2bbe a85a 143e

dense_2/kernel/transpose f4 [1, 8]
0.12287016 -0.4003116 -0.4933804 -0.44029492 0.43258142 0.16737625 0.2351735 0.17189074
00000000: 5aa3 fb3d a4f5 ccbe 5b9c fcbe 566e e1be
00000010: 507b dd3e ae64 2b3e 52d1 703e 2004 303e
